Assignment3/model_state_dict.pth (torch, 968647 bytes, 10 tensors)

conv1.weight f4 [32, 3, 3, 3]
0.03574917 0.069779046 0.14871542 -0.086286284 0.008410335 0.4124222 0.13959852 -0.008509473
0.16384257 0.09852841 -0.27313045 -0.1383147 0.043509264 -0.31709424 0.1192938 -0.13554284
-0.14274651 -0.058456343 -0.15111238 -0.3305504 -0.21580343 0.027045522 -0.31506744 0.07000719
0.08197186 -0.24708402 -0.039634015 -0.30240855 0.12511964 0.30771935 -0.05763684 -0.3822362
0.47817725 -0.043854836 -0.2508264 -0.24324982 0.16489297 0.08134593 0.46619314 0.029390238
-0.16862167 0.62810254 0.48241615 -0.13611004 -0.12770307 -0.28604132 -0.25289354 0.016784595
-0.3295768 -0.5722737 0.2836659 0.14884673 -0.17265415 -0.11346483 -0.27410173 0.23889498
0.40256432 0.15887693 0.43193433 -0.08446277 -0.14665747 0.0073149633 -0.12207951 -0.30076241
0.027097447 0.22575092 0.24099487 0.061440486 -0.331987 0.03191598 -0.08603975 -0.15200421
-0.23963892 -0.10314443 -0.12222287 0.22862735 0.20784652 -0.30180058 0.16646008 -0.1746587
0.024694541 0.20100263 0.105608106 -0.21591829 0.018328225 -0.079204336 -0.2528905 -0.04663838
-0.1762685 0.18229848 -0.10820181 -0.18256117 -0.21091232 0.1008106 0.25397882 -0.008819699
-0.18897521 -0.15157051 0.21558222 0.051989976 0.09682155 -0.24688019 -0.00565189 0.33292788
-0.05863135 0.07192451 0.28055304 0.33274877 0.16234909 -0.031153115 -0.052983876 0.08245092
0.034138195 0.28667268 -0.39577526 -0.32757124 -0.29743215 -0.016829725 -0.12646593 0.095295236
0.02604272 0.05625121 0.015490879 -0.06652945 -0.4014271 -0.32937455 0.15055935 0.15948139
0.19465259 0.070005864 0.42042494 0.35520723 -0.24934964 0.06303594 0.009725483 -0.42476183
-0.2541685 -0.09724858 -0.20810154 0.33492926 -0.14548877 0.10286572 0.16697371 -0.15472358
-0.11175641 -0.07273134 0.19533518 -0.12270182 0.38114727 0.10900422 0.10694276 0.3255544
0.17591493 -0.36381108 0.12659004 0.11008157 -0.2498689 0.15496412 0.11866318 0.13837048
0.057900883 -0.3213206 -0.014807616 0.02416996 0.023162361 -0.28142852 -0.322853 -0.32038906
-0.12053348 -0.39458087 -0.33270055 0.18170373 0.30000287 0.3146033 -0.085613735 -0.074732766
0.08809861 -0.10229411 -0.19825146 -0.20808895 0.10158375 0.37352023 0.37153503 0.18068364
0.17596711 0.08513695 -0.036818147 -0.12633832 0.014184756 -0.09442552 -0.03686955 0.48152786
-0.28064585 -0.3949783 -0.21984698 -0.0197364 -0.018098008 -0.15596409 -0.12866227 0.16784674
0.6506442 0.12369533 -0.13197549 0.13483094 0.4171519 0.27585757 -0.1678948 -0.28324142
0.077508174 0.26596636 -0.15865928 -0.44090158 -0.1855972 0.19582787 -0.2629218 -0.044921402
-0.041280266 0.017854914 -0.22490072 -0.26986468 0.12161681 -0.31084397 -0.07867117 0.18773676
-0.5392245 -0.022288831 0.31744576 0.14078037 0.22653307 0.6314404 0.029284569 0.056143276
0.59071106 -0.15884767 -0.085748464 -0.028353589 -0.26175517 -0.08229994 0.26225734 -0.3757646
-0.053289495 0.14199434 -0.44202423 -0.04428719 -0.26219407 0.1987069 0.22655883 -0.43689027
0.21930379 0.20561424 0.03592996 0.15683609 0.11683907 -0.21507482 0.3020857 0.11668811
00000000: b96d 123d 51e8 8e3d db48 183e ddb6 b0bd
00000010: 80cb 093c 0129 d33e eaf2 0e3e 516b 0bbc
00000020: 59c6 273e 43c9 c93d c1d7 8bbe 5ea2 0dbe
00000030: c536 323d 2d5a a2be 4f50 f43d becb 0abe
00000040: 242c 12be eb6f 6fbd 34bd 1abe e73d a9be
00000050: 93fb 5cbe 928e dd3c 8550 a1be ee5f 8f3d
00000060: dde0 a73d 9803 7dbe 4757 22bd 4bd5 9abe
00000070: 5d1f 003e 648d 9d3e 9b14 6cbd 77b4 c3be
00000080: a6d3 f43e 21a1 33bd 516c 80be 7b16 79be
00000090: b4d9 283e b298 a63d deb0 ee3e ccc3 f03c
000000a0: 29ab 2cbe 54cb 203f 40ff f63e 6e60 0bbe
000000b0: 98c4 02be 0274 92be 437b 81be d97f 893c
000000c0: 4abe a8be 8780 12bf a83c 913e 476b 183e
000000d0: 40cc 30be 4060 e8bd 1057 8cbe e3a0 743e
000000e0: e91c ce3e a2b0 223e 7f26 dd3e d1fa acbd
000000f0: 602d 16be 5cb2 ef3b d204 fabd 88fd 99be
00000100: 77fb dd3c 402b 673e 5cc7 763e 05a9 7b3d
00000110: 33fa a9be 55ba 023d 9c35 b0bd fea6 1bbe
00000120: e863 75be 633d d3bd fc4f fabd 4a1d 6a3e
00000130: b8d5 543e 9b85 9abe 8374 2a3e bbd9 32be
00000140: 354c ca3c a2d3 4d3e 1049 d83d af19 5dbe
00000150: 1325 963c e235 a2bd dd7a 81be e307 3fbd
00000160: bb7f 34be 74ac 3a3e e998 ddbd 51f1 3abe
00000170: 66f9 57be ca75 ce3d 8309 823e 8080 10bc
00000180: b882 41be 4d35 1bbe 96c1 5c3e 71f3 543d
00000190: 604a c63d 29ce 7cbe 7d33 b9bb 8675 aa3e
000001a0: 6d27 70bd 284d 933d a6a4 8f3e 0c5e aa3e
000001b0: d73e 263e d134 ffbc 9f05 59bd 07dc a83d
000001c0: 7ed4 0b3d c3c6 923e 0ea3 cabe 6bb7 a7be
000001d0: 0749 98be 7ede 89bc 4980 01be 262a c33d
000001e0: 8b57 d53c ab67 663d 75cd 7d3c 9840 88bd
000001f0: da87 cdbe c8a3 a8be 3b2c 1a3e 174f 233e
00000200: 0253 473e 3c5f 8f3d f041 d73e b9dd b53e
00000210: 8355 7fbe fd18 813d a257 1f3c 627a d9be
00000220: 6022 82be 432a c7bd 9218 55be d97b ab3e
00000230: 02fb 14be 43ab d23d 28fb 2a3e dc6f 1ebe
00000240: 8be0 e4bd 2bf4 94bd f205 483e 184b fbbd
00000250: bc25 c33e 9b3d df3d ce04 db3d 11af a63e
00000260: 0b23 343e 7245 babe d2a0 013e 7272 e13d
00000270: a2dd 7fbe eaae 1e3e ae05 f33d feb0 0d3e
00000280: 7a29 6d3d 2284 a4be a59b 72bc 1400 c63c
00000290: febe bd3c 6617 90be fd4c a5be 090a a4be
000002a0: 42da f6bd 8106 cabe ba57 aabe 8b10 3a3e
000002b0: fa99 993e af13 a13e 4156 afbd 7e0d 99bd
000002c0: 0b6d b43d 937f d1bd 6e02 4bbe 4515 55be
000002d0: 240b d03d 0b3e bf3e d739 be3e 2205 393e
000002e0: b930 343e 485c ae3d a0ce 16bd d55e 01be
000002f0: 2e67 683c 2b62 c1bd 8604 17bd d28a f63e
00000300: d0b0 8fbe 993a cabe 911f 61be 3bae a1bc
00000310: 4642 94bc 0db5 1fbe 0bc0 03be 04e0 2b3e
00000320: 9e90 263f fa53 fd3d 9524 07be 1f11 0a3e
00000330: ef94 d53e 343d 8d3e 9dec 2bbe 0505 91be
00000340: 9bbc 9e3d be2c 883e 9477 22be dabd e1be
00000350: 310d 3ebe 1a87 483e b09d 86be 81ff 37bd
00000360: 7f15 29bd 7844 923c 604c 66be b42b 8abe
00000370: 3c12 f93d f126 9fbe 5a1e a1bd 113e 403e
00000380: 9e0a 0abf 1197 b6bc 4088 a23e bb28 103e
00000390: 49f8 673e 14a6 213f 31e6 ef3c 7ef6 653d
000003a0: d738 173f f7a8 22be e49c afbd c945 e8bc
000003b0: c604 86be df8c a8bd 9846 863e 3864 c0be
000003c0: 1646 5abd f766 113e 0051 e2be 7c66 35bd
000003d0: 4d3e 86be d279 4b3e 0aff 673e 15b0 dfbe
000003e0: 2c91 603e 8a8c 523e 4b2b 133d a499 203e
000003f0: 5349 ef3d 933c 5cbe faaa 9a3e 2dfa ee3d

conv1.bias f4 [32]
0.21179265 0.017708782 -0.079003744 -0.084324196 0.05115901 -0.14265098 0.1622517 0.034919742
0.013689309 -0.17287484 -0.028672354 0.103864536 -0.12001596 0.1518535 -0.10165989 -0.30721676
-0.14985095 -0.14147796 0.06802525 0.23145841 -0.2174488 0.022632744 -0.16928697 -0.016208151
-0.15951853 -0.2921967 -0.22602423 -0.1673276 0.35030872 -0.01666837 -0.013620011 0.020531747
00000000: 2ce0 583e 0212 913c b7cc a1bd 2ab2 acbd
00000010: 1c8c 513d 1913 12be 4f25 263e 0108 0f3d
00000020: 2049 603c 1a06 31be 49e2 eabc eeb6 d43d
00000030: edca f5bd 7c7f 1b3e 0f33 d0bd 844b 9dbe
00000040: 8772 19be 99df 10be d350 8b3d 6f03 6d3e
00000050: e6aa 5ebe 4e68 b93c 9059 2dbe f5c6 84bc
00000060: d358 23be ce9a 95be e572 67be ed57 2bbe
00000070: aa5b b33e 1b8c 88bc 7726 5fbc 3232 a83c

conv2.weight f4 [64, 32, 4, 4]
0.050735567 0.017553952 0.05042395 0.022395203 0.0025253254 0.059244704 0.054328583 0.009687079
0.009461782 -0.022466835 0.04142452 0.029206833 -0.051425423 -0.03294851 -0.009922684 -0.008225284
-0.03566854 -0.002974866 0.022394726 0.03284134 0.054539945 0.045878697 0.027918728 0.012669205
-0.005802656 -0.0068953014 0.024045018 0.03377799 -0.06491637 -0.036997024 -0.06132254 -0.068183
0.037557878 -0.013468985 0.040904462 -0.00044124539 0.05260821 0.029931808 0.043354478 -0.051081542
0.0697829 0.059046637 -0.025918225 0.02068235 -0.04891094 0.032756325 -0.0059981886 0.016580382
-0.005207329 -0.052162517 -0.011775426 -0.031203108 -0.036206048 -0.04915838 -0.061262026 0.018864997
-0.008056319 0.0481336 -0.010976998 -0.03720172 0.0038418388 0.0047378303 -0.041373868 5.120403e-05
0.031740785 -0.011023343 0.016185084 -0.03296502 -0.021842718 -0.037546158 -0.0054383078 -0.005306451
0.05758835 -0.0057861563 0.002848536 -0.023108168 -0.002697941 -0.007797718 -0.016169198 -0.06190409
0.06926442 -0.004549341 0.022977278 -0.0023618536 0.010812981 0.02945603 -0.002519458 -0.019912396
0.03893289 0.07739464 0.050380837 -0.034044176 0.035967328 -0.0034037288 0.0135241905 -0.016774392
0.026098203 0.032194216 0.0066184993 0.039730396 0.05695125 -0.014741989 -0.05646309 -0.046889167
0.014350281 -0.0098405015 -0.07992472 -0.084704824 -0.0051312833 -0.011964732 -0.035398323 -0.094599985
-0.018301865 0.040220723 0.05134585 0.012546657 0.0019202121 0.022218764 0.018705813 0.031092148
-0.040011924 0.020744968 -0.029732918 0.051633585 -0.065106876 -0.009991663 -0.076028235 -0.07280904
0.008577258 0.056125414 -0.012986005 0.015987823 0.07019909 0.09320053 0.052665997 -0.014909705
0.01800575 0.067937054 0.04407963 -0.022367982 0.012121463 0.024501259 -0.0035702097 -0.057581894
-0.0063688396 0.030542515 -0.03356173 -0.01362909 0.07112912 0.020021647 -0.01328846 -0.0016100203
-0.013167015 -0.0043592285 0.011715997 0.024438292 -0.04674376 0.02413098 -0.008628907 0.019617083
0.046700448 0.03831075 0.033972565 0.002358204 0.08445311 -0.035984986 -0.054037705 -0.044086147
0.06616588 -0.008915929 -0.026328953 -0.015129745 0.06598587 -0.020172793 -0.02546046 -0.056769706
-0.0089224335 0.000630523 0.016679479 -0.026181154 0.002505657 -0.048447218 -0.008245075 0.004390126
0.00045475212 0.05655666 -0.044371568 -0.022850975 0.012022961 -0.04762402 -0.05457546 -0.020569097
0.06833475 0.00032925146 -0.034531545 0.020171497 0.034151256 0.03027551 0.031124791 -0.007110132
0.046462066 -0.0030537574 0.038832285 0.034694392 0.031553436 -0.040295262 -0.013202528 -0.0105567165
0.027538627 0.0016347808 0.0016204008 0.03117422 0.046864938 0.03980165 -0.021067314 -0.01008006
-0.0025411448 -0.0158942 0.013205258 0.015613289 -0.06711924 -0.057946883 -0.08275244 -0.017147548
0.014545617 -0.02502389 -0.013367524 0.0326401 0.06371362 0.03349354 -0.0135592325 0.022549713
0.0538926 0.06660928 0.0019065419 -0.052299734 0.06355969 -0.04744085 0.01848816 -0.08953794
0.035434157 -0.034862183 -0.011142046 -0.0092729805 0.019105937 -0.010431253 -0.064746544 0.040285975
0.050662305 0.0040453714 0.0009657205 -0.059779074 0.08657565 0.0050016786 -0.07261331 -0.061784025
00000000: 19d0 4f3d 4ecd 8f3c 5889 4e3d 2576 b73c
00000010: ee7f 253b 93aa 723d a687 5e3d 8eb6 1e3c
00000020: 9705 1b3c 5e0c b8bc c2ac 293d 2b43 ef3c
00000030: 77a3 52bd 04f5 06bd c192 22bc 57c3 06bc
00000040: 2d19 12bd f8f5 42bb 2575 b73c a484 063d
00000050: 4765 5f3d 4deb 3b3d d1b5 e43c 7f92 4f3c
00000060: 3524 bebb fbf1 e1bb 0ffa c43c ca5a 0a3d
00000070: e0f2 84bd 318a 17bd 582d 7bbd 87a3 8bbd
00000080: 4ad6 193d 05ad 5cbc 708b 273d f456 e7b9
00000090: b57b 573d 8d33 f53c 7794 313d e13a 51bd
000000a0: 56ea 8e3d e3da 713d 7552 d4bc 086e a93c
000000b0: d656 48bd 7f2b 063d 748c c4bb 95d3 873c
000000c0: 3ea2 aabb 5da8 55bd b7ed 40bc a99d ffbc
000000d0: cb4c 14bd 4c5a 49bd e4ed 7abd c48a 9a3c
000000e0: a7fe 03bc bd27 453d ded8 33bc d560 18bd
000000f0: 5cc7 7b3b cd3f 9b3b a577 29bd e9c3 5638
00000100: a002 023d 409b 34bc 9596 843c 5406 07bd
00000110: 80ef b2bc 00ca 19bd d533 b2bb bde1 adbb
00000120: c3e1 6b3d cc99 bdbb 81ae 3a3b 574d bdbc
00000130: f0cf 30bb 0084 ffbb 4475 84bc 258f 7dbd
00000140: 81da 8d3d a312 95bb d83a bc3c 54c9 1abb
00000150: ee28 313c c64d f13c 7e1d 25bb 521f a3bc
00000160: 1878 1f3d 1581 9e3d 235c 4e3d e871 0bbd
00000170: 7a52 133d 1811 5fbb 9194 5d3c 736a 89bc
00000180: e6cb d53c 15de 033d ffdf d83b 57bc 223d
00000190: b745 693d 6288 71bc d745 67bd db0e 40bd
000001a0: 711d 6b3c 0e3a 21bc 92af a3bd b979 adbd
000001b0: 5324 a8bb b907 44bc d5fd 10bd a3bd c1bd
000001c0: cbed 95bc 7cbe 243d 0750 523d 7e90 4d3c
000001d0: a0af fb3a 2004 b63c ef3c 993c f6b4 fe3c
000001e0: 8be3 23bd 5af1 a93c 7392 f3bc bd7d 533d
000001f0: c156 85bd 12b4 23bc b1b4 9bbd e81c 95bd
00000200: a187 0c3c c3e3 653d 41c3 54bc e5f8 823c
00000210: 8ac4 8f3d ebdf be3d 4db8 573d d647 74bc
00000220: cb80 933c 9522 8b3d d88c 343d 0f3d b7bc
00000230: 1a99 463c ddb6 c83c 2efa 69bb feda 6bbd
00000240: b3b1 d0bb 4c34 fa3c 0678 09bd 8c4c 5fbc
00000250: 25ac 913d 7004 a43c d7b7 59bc 5107 d3ba
00000260: 77ba 57bc dcd7 8ebb 74f4 3f3c d032 c83c
00000270: 6376 3fbd 55ae c53c 4260 0dbc 01b4 a03c
00000280: f848 3f3d bceb 1c3d d126 0b3d 198c 1a3b
00000290: c1f5 ac3d fe64 13bd a456 5dbd ad93 34bd
000002a0: fa81 873d 1e14 12bc d1af d7bc c0e2 77bc
000002b0: 9a23 873d 6a41 a5bc 7492 d0bc 5a87 68bd
000002c0: 662f 12bc af49 253a 67a3 883c dc79 d6bc
000002d0: f335 243b 9770 46bd 5a16 07bc 0cdb 8f3b
000002e0: cc6b ee39 f5a7 673d f6be 35bd f831 bbbc
000002f0: f4fb 443c 6811 43bd 848a 5fbd 8680 a8bc
00000300: 17f3 8b3d 629f ac39 f370 0dbd b23e a53c
00000310: 30e2 0b3d 5904 f83c 6bf9 fe3c 1cfc e8bb
00000320: 024f 3e3d 8c21 48bb 9a0e 1f3d b51b 0e3d
00000330: 2d3e 013d a50c 25bd 6a4f 58bc 14f6 2cbc
00000340: b098 e13c 2446 d63a a163 d43a 1461 ff3c
00000350: 73f5 3f3d 0e07 233d 5c95 acbc d626 25bc
00000360: 5689 26bb 8e34 82bc de5a 583c e1ce 7f3c
00000370: d075 89bd b659 6dbd 1c7a a9bd 0479 8cbc
00000380: bd50 6e3c e7fe ccbc 7603 5bbc a0b1 053d
00000390: 497c 823d 8630 093d 8b27 5ebc 2dba b83c
000003a0: 7dbe 5c3d 726a 883d eee4 f93a 3f38 56bd
000003b0: 952b 823d 5651 42bd 7b74 973c ab5f b7bd
000003c0: 6823 113d a6cb 0ebd 218d 36bc b3ed 17bc
000003d0: 0e84 9c3c d9e7 2abc d699 84bd e802 253d
000003e0: 4783 4f3d 098f 843b 6828 7d3a e7da 74bd
000003f0: 934e b13d 1fe5 a33b 49b6 94bd 3f11 7dbd

conv2.bias f4 [64]
-0.24294378 -0.16753799 -0.2589355 -0.24403466 0.0015536903 -0.05128192 -0.24697866 -0.286262
-0.21742491 -0.48866922 -0.275384 -0.264429 -0.22981523 -0.23065387 -0.2678232 -0.06281253
-0.25504154 -0.11933863 -0.3346956 -0.06933378 -0.18840562 -0.106117874 -0.25928634 -0.011250256
-0.33124134 -0.2911487 -0.36197057 -0.10431553 -0.25073767 -0.28854075 -0.25406048 -0.3723039
-0.13300954 -0.42175764 -0.13388008 -0.5500163 -0.57197607 -0.25071 -0.33578598 -0.4096888
-0.39815646 -0.2170775 -0.13216145 -0.2040546 -0.26318622 -0.2400211 -0.22250319 -0.46487024
-0.19867721 -0.23785676 -0.090823084 -0.20221835 -0.43495336 -0.30512106 -0.21184337 -0.5543362
-0.41075972 -0.42007276 -0.03435391 -0.26642597 -0.0027898569 -0.36182258 -0.053704917 -0.42754894
00000000: 41c6 78be 148f 2bbe 3293 84be 39e4 79be
00000010: 32a5 cb3a fe0c 52bd f9e7 7cbe ef90 92be
00000020: a3a4 5ebe da32 fabe 22ff 8cbe 3d63 87be
00000030: af54 6bbe 8730 6cbe 1f20 89be dba3 80bd
00000040: ce94 82be d067 f4bd 395d abbe defe 8dbd
00000050: 67ed 40be 5454 d9bd 2ec1 84be fe52 38bc
00000060: 7798 a9be 7111 95be 3554 b9be 61a3 d5bd
00000070: b060 80be 9dbb 93be 3714 82be 9e9e bebe
00000080: a733 08be 9ef0 d7be dc17 09be decd 0cbf
00000090: 066d 12bf 105d 80be 24ec abbe bbc2 d1be
000000a0: 2adb cbbe 9049 5ebe 5555 07be b0f3 50be
000000b0: 58c0 86be 17c8 75be e0d7 63be 7903 eebe
000000c0: 0a72 4bbe b990 73be 7401 babd 5412 4fbe
000000d0: 35b2 debe d438 9cbe 78ed 58be fae8 0dbf
000000e0: 194f d2be c713 d7be afb6 0cbd fc68 88be
000000f0: 08d6 36bb cf40 b9be b0f9 5bbd b2e7 dabe

conv3.weight f4 [128, 64, 3, 3]
0.024759693 0.017963462 0.05920382 0.0023621751 -0.02578128 0.030538874 -0.070524916 -0.06066306
-0.042121004 0.084093004 0.028754868 -0.0009506716 0.02082431 -0.02468259 -0.059728906 0.009587752
-0.06251205 -0.07859189 -0.018010257 -0.029421294 -0.07896384 0.06425556 0.039578225 -0.027978688
0.04327336 -0.020798255 0.03803648 0.06490366 0.0039140526 -0.016751599 0.054911405 0.023549074
-0.029437836 0.075918116 0.08336696 -0.010289733 -0.00045317947 0.0071763387 0.01580504 -0.04694808
-0.01962136 0.048674915 -0.029121542 -0.054925706 -0.01537989 0.014501984 0.007557401 -0.061375793
-0.018947203 0.0023806642 -0.022088228 -0.081903614 -0.027231503 -0.043481316 0.02696988 -0.0031601917
-0.016702795 -0.0021132014 -0.0007743364 -0.030552527 -0.024889348 -0.0737392 -0.05057869 0.0013716193
0.0491023 -0.009297465 -0.06468918 -0.0042058313 -0.1187638 -0.094609044 -0.113973916 -0.032181315
0.021104705 0.06933198 -0.048659883 -0.07221971 0.050872117 0.06636434 -0.107327715 -0.02891591
0.024068343 0.06266634 -0.046575356 -0.038951095 0.023542618 -0.0665452 -0.058260206 0.015377862
-0.013320836 -0.05376401 -0.010749565 -0.030806545 -0.0032059294 0.10463087 -0.05022959 0.043249227
-0.076917246 -0.074577264 -0.043848794 -0.09578453 -0.009023238 -0.0949463 0.08009972 0.01500354
-0.014341497 0.06607645 -0.06678067 -0.07221691 0.16521826 0.09472314 0.032022934 -0.010581319
0.0398103 0.037327018 0.07287305 0.056040972 0.025110582 -0.010994804 0.039438248 0.025139615
0.023011433 0.053598028 -0.036333237 0.0077750054 -0.008033984 -0.017668191 -0.01979804 -0.033578895
-0.0281997 -0.060987383 0.03194695 0.05120695 0.0023882422 -0.016849484 0.03448968 -0.008726812
-0.06724469 -0.00083038624 -0.07696611 -0.03792186 -0.013381873 0.09000085 -0.03717198 0.0047682077
0.05374569 0.008232839 0.03054641 0.05045656 -0.035865042 -0.08338815 -0.0030394136 -0.04942237
-0.067480266 0.08983499 0.10013594 0.05231139 -0.0070526158 0.013248208 -0.005006154 0.069757156
-0.05822488 0.071505286 -0.0075708404 0.04430168 -0.010902111 0.024481839 -0.055987097 0.04822372
0.057361584 -0.03180141 0.02850901 0.031205704 -0.026714431 -0.0037124355 -0.049384493 0.007221977
-0.07923166 0.03203055 -0.005017684 -0.02811498 0.08392033 0.08885553 -0.087474905 0.022424193
-0.068408296 -0.102738604 0.08621707 -0.02254616 -0.027079744 0.1422158 0.11247187 -0.007983084
0.0100456495 -0.002204321 -0.024300287 0.014127344 0.0052273087 -0.0041841934 0.1243248 0.053908847
-0.0062901243 -0.0012350549 -0.051395074 -0.085232474 0.12997724 -0.03287842 -0.031424932 0.03882369
0.045785904 -0.047549132 0.02442493 -0.0062824697 -0.030277906 -0.022947004 -0.10139314 -0.014700179
0.091268905 -0.02963073 -0.0914269 -0.0059630335 -0.06758619 -0.01003229 0.023626914 -0.06533663
0.04107525 0.14776985 0.05499177 -0.07316402 0.006067941 -0.0401525 -0.012461728 0.090871885
0.026811102 -0.07414734 0.056115907 -0.026328953 -0.012779925 0.030071959 -0.006200626 -0.092134126
-0.004467234 0.051767398 -0.08039186 0.03512615 -0.04768407 0.031944744 0.045904737 -0.018534996
0.040742647 0.11941572 0.023682186 0.04607151 0.06269919 0.085320495 0.0009174648 0.035638865
00000000: d7d4 ca3c 1c28 933c b47f 723d b9ce 1a3b
00000010: 4333 d3bc a92c fa3c 5e6f 90bd d479 78bd
00000020: 1387 2cbd f438 ac3d 548f eb3c 7e36 79ba
00000030: be97 aa3c 2533 cabc 4ca6 74bd f215 1d3c
00000040: 5106 80bd c9f4 a0bd 3f8a 93bc ed04 f1bc
00000050: cbb7 a1bd 6b98 833d c71c 223d 9033 e5bc
00000060: 683f 313d 1a61 aabc 24cc 1b3d 36ec 843d
00000070: 7441 803b a63a 89bc c8ea 603d fde9 c03c
00000080: 9e27 f1bc f57a 9b3d 4cbc aa3d 4596 28bc
00000090: b898 edb9 7e27 eb3b 9279 813c a14c 40bd
000000a0: f9bc a0bc 595f 473d 4d90 eebc c7f9 60bd
000000b0: effb 7bbc bb99 6d3c 13a4 f73b 2f65 7bbd
000000c0: 2a37 9bbc eb04 1c3b 5ff2 b4bc 15bd a7bd
000000d0: 9a14 dfbc 7719 32bd f0ef dc3c 381b 4fbb
000000e0: 4dd4 88bc a37d 0abb d6fc 4aba 4b49 fabc
000000f0: bfe4 cbbc 9404 97bd 9a2b 4fbd e8c7 b33a
00000100: 7e1f 493d 6554 18bc c37b 84bd 12d1 89bb
00000110: 6f3a f3bd 63c2 c1bd 286b e9bd 8ed0 03bd
00000120: c6e3 ac3c edfd 8d3d 964f 47bd ede7 93bd
00000130: 485f 503d 07ea 873d a2ce dbbd 0fe1 ecbc
00000140: f92a c53c 3657 803d cdc5 3ebd 2f8b 1fbd
00000150: 73dc c03c da48 88bd 41a2 6ebd 6ef3 7b3c
00000160: a33f 5abc a737 5cbd f21e 30bc 025e fcbc
00000170: 921a 52bb b648 d63d 8bbd 4dbd 1a26 313d
00000180: ca86 9dbd f7bb 98bd cb9a 33bd ae2a c4bd
00000190: 34d6 13bc 3573 c2bd 520b a43d 68d1 753c
000001a0: 99f8 6abc 1753 873d 4ec4 88bd 76e6 93bd
000001b0: fa2e 293e 35fe c13d 7b2a 033d 455d 2dbc
000001c0: 2010 233d 37e4 183d 773e 953d 388b 653d
000001d0: b5b4 cd3c 8d23 34bc 008a 213d 98f1 cd3c
000001e0: 7982 bc3c 9b89 5b3d 29d2 14bd 79c5 fe3b
000001f0: f9a0 03bc e2bc 90bc 802f a2bc 068a 09bd
00000200: 0f03 e7bc e8cd 79bd ceda 023d 61be 513d
00000210: 0e84 1c3b ee07 8abc 0d45 0d3d e7fa 0ebc
00000220: 96b7 89bd 47ae 59ba 68a0 9dbd f453 1bbd
00000230: a53f 5bbc 5e52 b83d a541 18bd a03e 9c3b
00000240: 7124 5c3d 08e3 063c 773c fa3c 8aab 4e3d
00000250: 39e7 12bd 68c7 aabd e630 47bb 1c6f 4abd
00000260: 1833 8abd 68fb b73d 1214 cd3d 7844 563d
00000270: a119 e7bb 030f 593c aa0a a4bb d7dc 8e3d
00000280: 367d 6ebd 5d71 923d d014 f8bb ae75 353d
00000290: c59e 32bc 238e c83c ba52 65bd 3c86 453d
000002a0: fbf3 6a3d 3242 02bd ba8b e93c 1ba3 ff3c
000002b0: 39d8 dabc 554c 73bb 6547 4abd 56a6 ec3b
000002c0: 3544 a2bd 7732 033d 626b a4bb 6351 e6bc
000002d0: 6cde ab3d e3f9 b53d 0b26 b3bd f1b2 b73c
000002e0: a619 8cbd 9e68 d2bd 9392 b03d b9b2 b8bc
000002f0: 57d6 ddbc 05a1 113e a757 e63d 7bcb 02bc
00000300: 8296 243c 5f76 10bb 6511 c7bc 6076 673c
00000310: d849 ab3b 8f1b 89bb 009e fe3d 86cf 5c3d
00000320: 631d cebb 91e1 a1ba a483 52bd 5d8e aebd
00000330: c118 053e 86ab 06bd 6eb7 00bd 9705 1f3d
00000340: 008a 3b3d e1c2 42bd ca16 c83c 2ddd cdbb
00000350: 5f09 f8bc 5bfb bbbc 35a7 cfbd 05d9 70bc
00000360: 31eb ba3d 25bc f2bc 073e bbbd 8d65 c3bb
00000370: a16a 8abd 795e 24bc 3b8d c13c 36cf 85bd
00000380: 853e 283d fb50 173e 0d3f 613d 05d7 95bd
00000390: 94d5 c63b f376 24bd 472c 4cbc 0a1b ba3d
000003a0: f5a2 db3c 90da 97bd cbd9 653d d1af d7bc
000003b0: e462 51bc 7859 f63c 9f2e cbbb d1b0 bcbd
000003c0: e061 92bb 0d0a 543d 7da4 a4bd 70e0 0f3d
000003d0: 5f50 43bd 7ed8 023d 9b06 3c3d b4d6 97bc
000003e0: c3e1 263d 3b90 f43d 2501 c23c 7bb5 3c3d
000003f0: 6f68 803d 83bc ae3d 0582 703a 0ffa 113d

conv3.bias f4 [128]
-0.1286848 -0.10480736 -0.060579 -0.17559867 -0.03607431 -0.16998033 -0.17873439 -0.18767396
-0.14944062 -0.20528536 0.039495237 -0.06942362 -0.095990196 -0.030453183 -0.061240997 -0.21240696
-0.08039811 -0.0628901 -0.13616344 -0.009351519 -0.109369025 0.118950546 -0.14206146 -0.10321891
-0.11431146 -0.08796745 -0.07295566 0.028002141 -0.097129025 -0.04048242 -0.15348655 -0.12050095
-0.21496108 -0.21752164 -0.26218387 -0.18840984 -0.117994435 -0.18747224 -0.04455992 -0.13809824
0.027324349 -0.23590246 -0.17582364 0.06893531 -0.17068595 -0.08989375 -0.19220962 -0.060223434
-0.3846605 -0.059358716 -0.10429733 -0.13473503 -0.031722207 -0.1337856 -0.20251359 -0.103262365
-0.20787773 -0.06572958 -0.15192209 -0.069028445 0.011148495 -0.10314065 -0.06622744 -0.10251459
-0.11021289 -0.20093337 -0.08662641 -0.2270965 -0.0871617 -0.0802072 -0.17465323 -0.038541183
-0.106841825 -0.20109196 -0.14415224 -0.035648733 -0.02345531 -0.08235981 -0.037759133 -0.053711403
-0.04217046 -0.110288635 -0.017741885 -0.07319838 -0.09331728 -0.060796108 -0.11365362 -0.08419484
-0.15100919 -0.25461656 -0.1408508 -0.18017471 -0.038095158 -0.1865404 -0.062131234 -0.036770813
-0.098479316 -0.08209777 -0.117684074 -0.049424704 -0.06744936 -0.17228845 -0.08715659 -0.07951404
-0.105416 -0.04758315 -0.3282472 -0.07363699 -0.021766718 0.024339806 -0.032572757 -0.21611089
-0.112650715 -0.08011523 -0.14116997 -0.16639741 -0.0069991183 -0.069978364 -0.14677228 -0.06857421
-0.016148092 -0.12827636 -0.17481253 -0.13069417 -0.10773295 -0.047218286 -0.1292919 -0.11527425
00000000: f3c5 03be 3ea5 d6bd af21 78bd 23d0 33be
00000010: a8c2 13bd 530f 2ebe 2606 37be 9a2d 40be
00000020: f606 19be 5336 52be c2c5 213d f92d 8ebd
00000030: 8296 c4bd f478 f9bc d7d7 7abd 3681 59be
00000040: c4a7 a4bd 86cc 80bd 6e6e 0bbe 1d37 19bc
00000050: defc dfbd 589c f33d 8f78 11be 7064 d3bd
00000060: 201c eabd 4728 b4bd c769 95bd bf64 e53c
00000070: 95eb c6bd e5d0 25bd 942b 1dbe 34c9 f6bd
00000080: c21e 5cbe febd 5ebe f73c 86be 82ee 40be
00000090: 11a7 f1bd b9f8 3fbe 7684 36bd a069 0dbe
000000a0: 50d7 df3c 6a90 71be 1d0b 34be f52d 8d3d
000000b0: 4cc8 2ebe 371a b8bd 99d2 44be d9ac 76bd
000000c0: 39f2 c4be 2022 73bd d799 d5bd fbf7 09be
000000d0: 25ef 01bd 18ff 08be b95f 4fbe 387b d3bd
000000e0: e6dd 54be 3b9d 86bd 7791 1bbe c95e 8dbd
000000f0: 2da8 363c 683b d3bd 41a2 87bd 2bf3 d1bd
00000100: 4cb7 e1bd 7ac1 4dbe 3069 b1bd fc8b 68be
00000110: d581 b2bd ac43 a4bd 4cd8 32be 5cdd 1dbd
00000120: e3cf dabd 0deb 4dbe a59c 13be 6804 12bd
00000130: 5a25 c0bc 43ac a8bd 52a9 1abd 7d00 5cbd
00000140: efba 2cbd 02df e1bd 6e57 91bc 08e9 95bd
00000150: 211d bfbd 5705 79bd 3bc3 e8bd 586e acbd
00000160: 27a2 1abe 1a5d 82be 313b 10be b87f 38be
00000170: ab09 1cbd 7204 3fbe 527d 7ebd fe9c 16bd
00000180: 86af c9bd e022 a8bd 5904 f1bd 8f71 4abd
00000190: e422 8abd 626c 30be 277f b2bd 42d8 a2bd
000001a0: 58e4 d7bd 8de6 42bd 0410 a8be fdce 96bd
000001b0: 1e50 b2bc 4664 c73c 036b 05bd 2c4c 5dbe
000001c0: 6bb5 e6bd 7413 a4bd dc8e 10be 1564 2abe
000001d0: dc58 e5bb d150 8fbd 794b 16be a370 8cbd
000001e0: 0149 84bc e15a 03be 0e02 33be b1d4 05be
000001f0: 18a3 dcbd f667 41bd 1965 04be e814 ecbd

fc1.weight f4 [256, 512]
0.11906747 0.023199948 0.0512596 0.03633509 -0.07641578 -0.043517772 0.0010495834 -0.0062951343
-0.036933567 -0.041939985 -0.074503005 0.032978658 -0.073565 -0.004454846 -0.002316142 -0.010470565
-0.06508336 -0.014828841 0.082670435 0.04874529 -0.0035221132 0.0032567198 0.0836458 0.016808571
-0.03858 -0.07042721 -0.062862724 -0.026726091 -0.0013410571 0.011052302 0.021528099 -0.07121546
-0.0060254647 -0.056399547 -0.01844664 -0.0069877333 -0.02237253 0.006735807 -0.04557976 -0.076473586
-0.029984513 -0.041246753 0.0060907938 -0.00020899488 -0.015409857 -0.07645809 0.03021201 -0.0020865304
0.021523343 0.031547308 0.039450068 0.06905078 -0.03732653 0.017590545 0.01579397 -0.052968293
-0.06167787 -0.035251684 -0.044626355 -0.008404446 0.003975358 -0.026246564 0.05145824 -0.030467384
-0.11376763 -0.013270844 -0.02594021 0.045267828 0.032181233 -0.0461518 0.02784733 0.021495814
0.076464385 0.005385759 0.028883005 0.009643141 -0.029448552 -0.015694492 -0.022275852 -0.03437639
0.01664306 -0.027988097 -0.064689085 0.026946196 -0.115306795 -0.008233814 -0.07851982 0.010133528
-0.050552797 -0.01016319 0.0053924387 -0.11729236 -0.06264619 -0.09438366 0.047002725 -0.029490415
-0.00838159 -0.05679648 0.039091058 -0.060054224 0.04288633 -0.04431681 -0.024291445 -0.033876885
-0.0057794387 0.06703145 0.08598475 0.055075478 -0.05017315 -0.06852241 0.019498032 -0.054006603
-0.00838618 0.074804135 -0.05564231 0.055718537 0.014270649 -0.04972165 0.012600896 0.007833749
-0.060270265 -8.664615e-06 0.059370268 -0.0361375 -0.04861512 0.04171139 0.022282422 -0.023802815
0.034839053 -0.007864526 -0.041233633 -0.025859363 0.072265916 0.027550284 -0.014308886 -0.015129441
-0.011879179 -0.13420539 -0.006476638 -0.045053884 0.03532484 -0.01550806 0.016188618 0.014527255
-0.021133754 -0.04912108 -0.033303175 0.052028764 0.00089054304 0.05255325 -0.064154714 0.026813753
0.025035238 -0.04318825 0.038349558 -0.023585416 0.006470402 -0.0067644184 -0.09949591 0.017626906
-0.00026217435 0.05244209 0.11878218 0.0024520536 0.16125385 0.11099049 -0.014266972 0.06500954
0.028222267 -0.010356068 -0.0324705 -0.008024476 -0.061599877 -0.06007993 0.06464917 -0.0030802067
0.061072707 -0.00451273 -0.016233616 -0.10543499 -0.044057466 -0.07644334 0.069823354 0.024158193
-0.08698901 -0.007689178 0.030480206 0.008208155 -0.09099969 0.03995489 0.0045162616 0.044125535
-0.012362587 0.016615253 -0.037218668 -0.084913135 -0.049844045 0.06604062 0.0056113442 0.057114217
-0.002295764 -0.016786609 0.014354 0.008529776 -0.023627972 0.02663818 -0.03995159 -0.04988558
-0.03285452 0.018733466 -0.013135437 0.027387025 -0.045857176 -0.046201833 -0.037053682 -0.017739747
0.008169086 0.055944618 0.03746353 0.027543005 0.012389939 0.025928272 0.00041153262 -0.04491049
0.08717822 0.085022956 0.062015604 0.026975675 -0.02025108 -0.03929483 0.044803478 -0.07533372
-0.031714443 -0.07375444 0.0059673632 -0.018642584 0.035565518 -0.08051685 -0.006520289 -0.04796917
-0.042314313 -0.040543128 -0.040674545 -0.0018037487 -0.050093137 0.046180766 -0.035459496 0.038218014
-0.0571511 0.006034037 -0.092857316 0.032516956 0.04053609 -0.00015391925 0.062086854 -0.0019396048
00000000: a5d9 f33d d10d be3c 96f5 513d 1ad4 143d
00000010: e07f 9cbd b13f 32bd 2d92 893a 6a47 cebb
00000020: a747 17bd 43c9 2bbd 0895 98bd a114 073d
00000030: 3fa9 96bd f5f9 91bb 6aca 17bb bc8c 2bbc
00000040: 6d4a 85bd abf4 72bc 1e4f a93d 24a9 473d
00000050: 41d3 66bb b16e 553b 7d4e ab3d 21b2 893c
00000060: 1006 1ebd 243c 90bd 2cbe 80bd adf0 dabc
00000070: 69c6 afba b714 353c b25b b03c 69d9 91bd
00000080: 4371 c5bb 3603 67bd 681d 97bc 5bf9 e4bb
00000090: 9946 b7bc 0bb8 dc3b d8b1 3abd 2f9e 9cbd
000000a0: 15a2 f5bc 5bf2 28bd 4895 c73b a325 5bb9
000000b0: a079 7cbc 0f96 9cbd 2d7f f73c 2cbe 08bb
000000c0: b951 b03c c037 013d 6596 213d 7f6a 8d3d
000000d0: b4e3 18bd 0c1a 903c 5b62 813c 48f5 58bd
000000e0: efa1 7cbd 1264 10bd 20ca 36bd cdb2 09bc
000000f0: b843 823b 0903 d7bc e0c5 523d bc96 f9bc
00000100: 01ff e8bd f46d 59bc 9080 d4bc c26a 393d
00000110: 78d0 033d ab09 3dbd 1520 e43c fd17 b03c
00000120: 5c99 9c3d 057b b03b 0d9c ec3c 44fe 1d3c
00000130: 173e f1bc bc91 80bc d97b b6bc 42ce 0cbd
00000140: 0757 883c 4b47 e5bc b67b 84bd 45be dc3c
00000150: f825 ecbd 1ee7 06bc 00cf a0bd 1907 263c
00000160: 7310 4fbd 8283 26bc 0eb3 b03b fa36 f0bd
00000170: a54c 80bd 384c c1bd ee85 403d e295 f1bc
00000180: f052 09bc 6da3 68bd f21d 203d 6bfb 75bd
00000190: 94a9 2f3d 8b85 35bd dafe c6bc 7dc2 0abd
000001a0: 7261 bdbb c947 893d c618 b03d d396 613d
000001b0: 5c82 4dbd 7a55 8cbd 56ba 9f3c 0736 5dbd
000001c0: 3066 09bc e932 993d 31e9 63bd 1f39 643d
000001d0: 71cf 693c eea8 4bbd fd73 4e3c 2059 003c
000001e0: f4dd 76bd 3d5e 11b7 3d2e 733d ea04 14bd
000001f0: a620 47bd 90d9 2a3d a089 b63c 1ffe c2bc
00000200: 65b3 0e3d 36da 00bc 99e4 28bd 04d7 d3bc
00000210: 2700 943d 22b1 e13c d16f 6abc 7ae1 77bc
00000220: e3a0 42bc 236d 09be fa39 d4bb 6c8a 38bd
00000230: c8b0 103d 8515 7ebc fe9d 843c b903 6e3c
00000240: b220 adbc 3033 49bd e968 08bd 1d1c 553d
00000250: 5573 693a 1442 573d 8c63 83bd 84a8 db3c
00000260: b316 cd3c 2ae6 30bd 6d14 1d3d 3436 c1bc
00000270: aa05 d43b 0ea8 ddbb 83c4 cbbd 4d66 903c
00000280: 7274 89b9 84cd 563d 1244 f33d a2b2 203b
00000290: bb1f 253e fb4e e33d 05c0 69bc b923 853d
000002a0: 6232 e73c 7fac 29bc c9ff 04bd 1779 03bc
000002b0: 2750 7cbd 5f16 76bd c966 843d 4bdd 49bb
000002c0: 6027 7a3d 86df 93bb 5cfc 84bc 4dee d7bd
000002d0: 9a75 34bd 538e 9cbd 8cff 8e3d 67e7 c53c
000002e0: 4b27 b2bd 80f5 fbbb a0b1 f93c 7f7b 063c
000002f0: 0c5e babd bda7 233d 26fd 933b fabc 343d
00000300: 738c 4abc b61c 883c 9a72 18bd f0e6 adbd
00000310: 4529 4cbd 4e40 873d 5edf b73b 99f0 693d
00000320: 8774 16bb 1284 89bc 0a2d 6b3c 79c0 0b3c
00000330: 738f c1bc 5038 da3c 47a4 23bd d254 4cbd
00000340: 7692 06bd ed76 993c 0436 57bc c15a e03c
00000350: bcd4 3bbd 223e 3dbd 9ac5 17bd f252 91bc
00000360: a1d7 053c 2f26 653d 5c73 193d dea1 e13c
00000370: 2cff 4a3c 8767 d43c f9c2 d739 10f4 37bd
00000380: 7f8a b23d 8420 ae3d 1304 7e3d 17fc dc3c
00000390: 98e5 a5bc 9ef3 20bd da83 373d 9148 9abd
000003a0: 01e7 01bd 910c 97bd df89 c33b 55b8 98bc
000003b0: 26ad 113d 05e6 a4bd 26a8 d5bb 527b 44bd
000003c0: c651 2dbd 8d10 26bd 5a9a 26bd c36b ecba
000003d0: 762e 4dbd 0b28 3d3d fa3d 11bd 7e8a 1c3d
000003e0: 4617 6abd 2cb9 c53b fa2b bebd 8030 053d
000003f0: 2c09 263d 6265 21b9 c94e 7e3d 563a feba

fc1.bias f4 [256]
-0.094917595 -0.04237114 0.10668628 -0.07355677 -0.03250548 -0.013873028 0.03372839 -0.02983219
-0.02784056 -0.004124418 -0.031812936 -0.04286751 -0.0331876 -0.00012291563 -0.06434731 -0.00824468
-0.008504968 -0.052374624 0.1526295 0.04459293 -0.08589569 -0.011255354 0.007977703 -0.01219751
-0.041630354 0.10741349 0.052520532 -0.042621937 -0.058706347 0.028257966 0.07742063 -0.06177106
-0.12824576 -0.06964416 0.029261392 -0.06669436 -0.050926838 0.01191989 -0.007866383 -0.0043925135
-0.024444276 0.17369467 -0.037937563 0.033459097 -0.008089433 -0.042203333 -0.035531547 -0.016559998
0.18974261 -0.0146617135 0.050054647 -0.027502049 0.016743641 -0.05842152 0.017692294 0.0810702
-0.07641103 -0.02033609 0.15385085 -0.09274916 -0.03497583 0.06716372 -0.075613655 -0.08028267
-0.03364901 -0.07352032 0.010543678 0.073390506 0.011570003 0.008986089 -0.049365982 -0.031820063
-0.030340552 -0.029978553 -0.047744036 -0.010732253 -0.019833347 -0.08703893 -0.08814916 -0.008027179
-0.0050403373 -0.038379077 0.052834067 -0.08344602 0.0041467436 -0.040364426 0.030919448 -0.03436462
0.017193995 0.054215055 -0.034716778 0.012643851 -0.049669534 -0.0078872405 -0.05321886 -0.07865004
0.014258844 -0.050246544 -0.06522913 -0.049232345 0.035224006 -0.03759032 -0.030785628 0.04969236
0.0074283076 0.035923667 -0.055747982 0.12567769 0.101397306 0.06278855 -0.03554807 -0.042894755
-0.03557717 -0.026379075 -0.0062480303 -0.04380403 0.0024175718 0.018209605 0.05649699 -0.019257955
0.18388253 -0.05513679 0.061781462 0.19997394 -0.016928539 0.044216312 -0.048469417 -0.050424483
-0.07202512 -0.019872991 -0.0149389645 -0.12243861 -0.00705112 0.0541069 -0.003431234 -0.04787304
-0.021840706 -0.06714047 -0.029531624 0.022755448 -0.051051747 -0.1362424 0.042164672 0.12139456
-0.0353591 0.011827361 0.034953486 0.06876426 -0.023427729 0.04028084 0.05248996 -0.019694977
0.045789305 -0.035790104 -0.015433753 -0.030972658 -0.07430889 0.024415761 -0.060429253 -0.09584847
-0.041244037 -0.013524078 0.029785676 -0.047054302 0.12333111 0.012559199 -0.035431854 -0.044273335
-0.013535351 -0.09197708 -0.01207007 -0.019222794 0.038608808 -0.080048755 -0.011206535 -0.0724634
-0.013676721 -0.06613976 -0.04010236 0.07579829 0.04590625 -0.01008704 -0.08487092 0.01310749
-0.060097955 0.03881638 -0.07709998 -0.006225779 -0.07008964 -0.08538298 -0.068854146 0.09429401
0.07024287 -0.03613654 -0.00088284485 -0.10532272 0.03971384 -0.0859414 -0.040887367 -0.05317254
-0.059682682 0.048553 -0.10307498 -0.08834265 0.029214557 -0.035535093 -0.047744535 0.043083545
0.05687409 0.045544278 -0.0707491 -0.022658655 -0.0051673893 -0.065615796 0.0076891882 -0.0256554
-0.055332858 -0.021363337 0.042178858 0.056160502 0.0057627666 -0.017326778 0.12819399 -0.047135524
-0.052956965 -0.018328087 -0.070782065 0.046000116 0.01990424 0.04076781 -0.02828997 0.0015469053
-0.0015390859 -0.06969936 0.007557766 -0.043663975 0.10802907 0.08449327 0.014043193 -0.023341043
0.043649565 -0.032721367 -0.07679071 -0.07660856 -0.054969452 0.008919135 -0.059699144 -0.06412808
-0.06867015 -0.042661052 -0.07586972 -0.022639906 -0.033354916 0.08205307 -0.014421115 -0.0944689
00000000: 2864 c2bd 5c8d 2dbd 567e da3d efa4 96bd
00000010: 7724 05bd b24b 63bc c826 0a3d a362 f4bc
00000020: e311 e4bc 2026 87bb 484e 02bd d895 2fbd
00000030: b9ef 07bd eae2 00b9 86c8 83bd b214 07bc
00000040: 6c58 0bbc c686 56bd e84a 1c3e 13a7 363d
00000050: 14ea afbd 6068 38bc e9b4 023c 11d8 47bc
00000060: 9784 2abd 9bfb db3d c51f 573d 5794 2ebd
00000070: 1176 70bd 407d e73c b58e 9e3d a703 7dbd
00000080: db52 03be 99a1 8ebd 96b5 ef3c 0d97 88bd
00000090: a998 50bd a44b 433c 00e2 00bc 13ef 8fbb
000000a0: 5d3f c8bc 04dd 313e 6b64 1bbd 680c 093d
000000b0: 8b89 04bc 67dd 2cbd 8789 11bd d5a8 87bc
000000c0: e34b 423e af37 70bc 1a06 4d3d fa4b e1bc
000000d0: f629 893c 674b 6fbd 6eef 903c 2208 a63d
000000e0: 637d 9cbd df97 a6bc 148b 1d3e 46f3 bdbd
000000f0: d142 0fbd 228d 893d 55db 9abd 3e6b a4bd
00000100: 8bd3 09bd d291 96bd 64bf 2c3c c34d 963d
00000110: 1c90 3d3c 643a 133c fc33 4abd c155 02bd
00000120: c08c f8bc 9595 f5bc 408f 43bd 55d6 2fbc
00000130: 8b79 a2bc 7741 b2bd 8c87 b4bd 6e84 03bc
00000140: 6a29 a5bb 6133 1dbd 8968 583d bfe5 aabd
00000150: 68e1 873b 2b55 25bd c84a fd3c eac1 0cbd
00000160: 6cda 8c3c 9b10 5e3d 2e33 0ebd 2828 4f3c
00000170: 4872 4bbd 7c39 01bc 05fc 59bd 4613 a1bd
00000180: ed9d 693c 52cf 4dbd da96 85bd dba7 49bd
00000190: 0c47 103d 4ff8 19bd 2432 fcbc 378a 4b3d
000001a0: 2969 f33b b224 133d ff57 64bd a7b1 003e
000001b0: 64a9 cf3d 4997 803d da9a 11bd 69b2 2fbd
000001c0: 5eb9 11bd ee18 d8bc 47bc ccbb db6b 33bd
000001d0: 2070 1e3b 4f2c 953c 6369 673d dcc2 9dbc
000001e0: b44b 3c3e 1dd7 61bd 8f0e 7d3d f8c5 4c3e
000001f0: b8ad 8abc 2a1c 353d de87 46bd e789 4ebd
00000200: e881 93bd afcc a2bc 8fc2 74bc 18c1 fabd
00000210: 150d e7bb 329f 5d3d 8ede 60bb 8516 44bd
00000220: 48eb b2bc f180 89bd 4eec f1bc a269 ba3c
00000230: a31b 51bd 2183 0bbe ddb4 2c3d b69d f83d
00000240: b4d4 10bd 8cc7 413c 632b 0f3d 47d4 8c3d
00000250: 82eb bfbc 86fd 243d b6ff 563d 5c57 a1bc
00000260: 918d 3b3d a598 12bd dadd 7cbc 5fba fdbc
00000270: 422f 98bd 9003 c83c aa84 77bd 344c c4bd
00000280: 82ef 28bd 1894 5dbc 1701 f43c 03bc 40bd
00000290: 0595 fc3d 19c5 4d3c fe20 11bd f557 35bd
000002a0: 60c3 5dbc 7b5e bcbd 8bc1 45bc 1f79 9dbc
000002b0: 4524 1e3d 9af0 a3bd 9d9b 37bc b167 94bd
000002c0: 5314 60bc 4874 87bd 5f42 24bd 223c 9b3d
000002d0: 3108 3c3d 1d44 25bc ced0 adbd ccc0 563c
000002e0: 4629 76bd edfd 1e3d 98e6 9dbd 9f01 ccbb
000002f0: 288b 8fbd 46dd aebd 6703 8dbd 381d c13d
00000300: 7edb 8f3d e903 14bd b76e 67ba 70b3 d7bd
00000310: fbaa 223d 0b02 b0bd 8379 27bd 73cb 59bd
00000320: d475 74bd 83df 463d fa18 d3bd feec b4bd
00000330: 5e53 ef3c 3f8d 11bd c68f 43bd 5f78 303d
00000340: cef4 683d a38c 3a3d e7e4 90bd a59e b9bc
00000350: 3453 a9bb 9361 86bd 96f5 fb3b 462b d2bc
00000360: b5a4 62bd 2a02 afbc bdc3 2c3d 8e08 663d
00000370: 97d5 bc3b e3f0 8dbc 4945 033e 2e11 41bd
00000380: 67e9 58bd c924 96bc 30f6 90bd 9e6a 3c3d
00000390: 370e a33c 26fc 263d 5ec0 e7bc 87c1 ca3a
000003a0: 27bb c9ba 8abe 8ebd 23a7 f73b ffd8 32bd
000003b0: 583e dd3d cf0a ad3d 6c15 663c b735 bfbc
000003c0: e3c9 323d d706 06bd 7344 9dbd f3e4 9cbd
000003d0: a627 61bd 9021 123c 1787 74bd 9555 83bd
000003e0: f0a2 8cbd 5bbd 2ebd 9561 9bbd 5377 b9bc
000003f0: 2a9f 08bd 710b a83d 8a46 6cbc e978 c1bd

fc2.weight f4 [10, 256]
-0.1751815 0.19015391 -0.18678431 0.047153372 -0.021239389 0.04124024 0.012583903 0.25189006
0.14888254 0.18677229 0.07511758 0.080388054 0.19106352 -0.03708051 0.121099286 0.23053478
-0.19364873 0.27438852 -0.2972585 -0.08870967 -0.08545926 -0.15384513 0.14798856 0.14020924
0.008088632 0.22381727 -0.09239688 0.12637147 0.054377284 -0.23850052 -0.33949986 0.15937446
0.14374636 0.29106855 0.11139927 0.022646159 0.27646813 -0.3076877 -0.2379295 0.03339121
-0.035438344 -0.23461086 -0.058225367 0.087032266 0.11666246 0.0412975 0.027700312 -0.093311034
-0.048172794 0.12087875 -0.023538083 -0.09466381 -0.06765708 0.03897385 -0.0022723181 0.025258154
0.05925251 -0.12468742 -0.18871383 0.018384997 -0.19156785 -0.24217963 0.057558015 -0.0010220531
0.247791 -0.0027464165 0.11361531 -0.21953824 0.040158924 -0.061433632 0.032298844 0.1654928
-0.024562307 -0.061205402 0.049957316 0.0919201 0.051159523 0.33811322 0.039298635 -0.105286874
0.018363882 0.14717881 -0.2045554 0.05718821 -0.007177862 0.02893177 0.028135693 -0.16158967
0.075307146 0.04256894 -0.087605655 -0.13261357 0.1397612 -0.15285505 -0.09428213 -0.10646003
0.084287316 0.028915362 -0.049951848 -0.1153325 0.12951085 -0.006215149 -0.05892411 0.15939657
-0.2774578 0.1656876 0.098506354 0.0038107773 0.05135294 0.064193085 -0.11928606 -0.013515203
0.098920405 -0.064419754 -0.20504394 -0.06933381 -0.04045166 -0.12076753 -0.13815771 -0.039177306
-0.083851285 0.033126377 -0.03486508 -0.1861761 0.06661792 -0.0027736973 0.14358611 0.10623436
0.15975575 -0.1454091 -0.01884413 0.28979355 0.069576345 0.2194607 -0.14070378 0.030680504
0.052065205 -0.29748297 -0.25427073 -0.036164176 0.15973267 0.1070343 0.18546076 -0.08437149
0.027727272 -0.0121373935 0.12848644 0.0060431217 0.0123610785 0.009016194 0.08218887 -0.0596695
-0.05039333 0.0025768566 0.10074623 0.051294293 0.2215471 0.20621786 0.2347602 0.24141118
0.08817299 -0.022592265 -0.08893532 0.15611275 -0.17123106 -0.01043379 -0.030113988 0.13836674
0.14758159 -0.006280263 -0.25713944 0.0989471 -0.10575142 0.043395013 -0.020386836 0.10477515
0.12383908 0.1843753 -0.19096781 0.20020252 -0.19222115 -0.066579215 -0.02626502 -0.032257736
-0.036358085 0.098667614 -0.09161059 -0.04269629 0.13513778 0.18543707 -0.10708173 -0.27153036
0.13121115 0.16203569 -0.11189879 0.23335966 0.15793695 0.25298494 -0.09471351 -0.18218721
-0.11247738 -0.09232427 0.13709293 0.06798925 0.16281068 -0.033281256 0.20587555 0.11127508
0.012176217 -0.067511655 -0.007376448 -0.18937464 0.24785955 0.019207371 0.13032357 -0.04038662
0.08041832 0.37593782 -0.14728631 -0.06702776 -0.09682532 0.13951601 -0.25670058 -0.13004103
-0.096005894 0.11477902 0.17167073 -0.17702048 0.02568116 -0.023591237 0.06918769 0.16009079
-0.04486846 0.11917806 0.015992377 -0.09132731 -0.22190306 0.04679623 0.081722766 -0.01807407
0.06159825 0.03233627 0.1341119 0.1282038 0.015353148 0.07238849 0.07024078 0.024427023
0.005097846 0.24846426 0.077510536 0.030914843 -0.11099534 -0.08371754 -0.0014337285 0.23875673
00000000: c762 33be b5b7 423e 6344 3fbe e523 413d
00000010: 3afe adbc 87eb 283d b72c 4e3c bcf7 803e
00000020: aa74 183e 3c41 3f3e 3fd7 993d 7ea2 a43d
00000030: 28a6 433e bce1 17bd e702 f83d 4f11 6c3e
00000040: da4b 46be a77c 8c3e 4432 98be 6aad b5bd
00000050: 4405 afbd 9489 1dbe 508a 173e 0393 0f3e
00000060: 2e86 043c 5b30 653e 933a bdbd 8667 013e
00000070: b7ba 5e3d 7b39 74be edd2 adbe 0f33 233e
00000080: 3f32 133e f006 953e 4d25 e43d 7084 b93c
00000090: 3b8d 8d3e 3e89 9dbe caa3 73be 39c5 083d
000000a0: cc27 11bd d43d 70be b97d 6ebd f93d b23d
000000b0: baec ee3d 9127 293d c4eb e23c db19 bfbd
000000c0: d650 45bd 478f f73d f0d2 c0bc 1adf c1bd
000000d0: cc8f 8abd 0ba3 1f3d 2ceb 14bb 30ea ce3c
000000e0: c3b2 723d 1e5c ffbd 333e 41be 229c 963c
000000f0: 5d2a 44be f0fd 77be f4c1 6b3d 69f6 85ba
00000100: edbc 7d3e 39fd 33bb 25af e83d a2ce 60be
00000110: af7d 243d d5a1 7bbd cb4b 043d f276 293e
00000120: e436 c9bc 84b2 7abd 0ba0 4c3d 9b40 bc3d
00000130: a68c 513d 2d1d ad3e 9bf7 203d a5a0 d7bd
00000140: da6f 963c 0bb6 163e f976 51be 2f3e 6a3d
00000150: 4534 ebbb 5202 ed3c d37c e63c c377 25be
00000160: a23a 9a3d c55c 2e3d 986a b3bd dacb 07be
00000170: 8f1d 0f3e 0986 1cbe fd16 c1bd b707 dabd
00000180: d49e ac3d e9df ec3c 4f9a 4cbd 7233 ecbd
00000190: 7e9e 043e 73a8 cbbb 685a 71bd db38 233e
000001a0: f30e 8ebe 03aa 293e b3bd c93d 3cbe 793b
000001b0: 7657 523d aa77 833d 404c f4bd df6e 5dbc
000001c0: c896 ca3d 81ee 83bd 0af7 51be e2fe 8dbd
000001d0: a4b0 25bd f754 f7bd 3779 0dbe 6278 20bd
000001e0: 39ba abbd 86af 073d b0ce 0ebd f3a4 3ebe
000001f0: fa6e 883d ebc6 35bb 3d08 133e 6691 d93d
00000200: 0397 233e 20e6 14be 015f 9abc d25f 943e
00000210: 0b7e 8e3d 4eba 603e a714 10be ae55 fb3c
00000220: 5342 553d b04f 98be c62f 82be e320 14bd
00000230: f690 233e cd34 db3d 6de9 3d3e f6ca acbd
00000240: 4e24 e33c ebdb 46bc f391 033e 6105 c63b
00000250: 1f86 4a3c a9b8 133c a352 a83d 0168 74bd
00000260: 3d69 4ebd 7be0 283b 0a54 ce3d f719 523d
00000270: 3edd 623e c62a 533e fa64 703e 7e34 773e
00000280: 0a94 b43d 6a13 b9bc b923 b6bd 05dc 1f3e
00000290: 3257 2fbe 7df2 2abc 9cb1 f6bc 03b0 0d3e
000002a0: a11f 173e aaca cdbb c8a7 83be c7a4 ca3d
000002b0: 3394 d8bd f8be 313d 4b02 a7bc 5b94 d63d
000002c0: 589f fd3d e1cc 3c3e 118d 43be e401 4d3e
000002d0: 9fd5 44be af5a 88bd bd29 d7bc b020 04bd
000002e0: 37ec 14bd 3f12 ca3d 559e bbbd 4ee2 2ebd
000002f0: 8f61 0a3e 37e3 3d3e ab4d dbbd 0706 8bbe
00000300: 375c 063e afec 253e 312b e5bd d6f5 6e3e
00000310: 39ba 213e 3e87 813e 28f9 c1bd 498f 3abe
00000320: 8a5a e6bd 8214 bdbd 1762 0c3e f33d 8b3d
00000330: d8b7 263e ed51 08bd 0ad1 523e 30e4 e33d
00000340: c17e 473c 8d43 8abd 21b6 f1bb 6deb 41be
00000350: e5ce 7d3e c758 9d3c 8b73 053e 716c 25bd
00000360: 5cb2 a43d ec7a c03e 39d2 16be da45 89bd
00000370: 5a4c c6bd 49dd 0e3e 426e 83be 7a29 05be
00000380: bd9e c4bd 4311 eb3d 74ca 2f3e db44 35be
00000390: 4c61 d23c 6942 c1bc 47b2 8d3d d7ee 233e
000003a0: fec7 37bd a013 f43d 7202 833c d009 bbbd
000003b0: 8e3a 63be 67ad 3f3d 445e a73d 1210 94bc
000003c0: 724e 7c3d 0973 043d a154 093e db47 033e
000003d0: c58b 7b3c 6b40 943d 66da 8f3d 2e1b c83c
000003e0: d50b a73b 6a6d 7e3e d8bd 9e3d 2041 fd3c
000003f0: 8651 e3bd 1a74 abbd f2eb bbba a57c 743e

fc2.bias f4 [10]
-0.5155407 -0.29263875 -0.08796898 0.007894795 0.6482323 -0.0068651848 0.29823613 0.026507957
-0.097100236 0.15937978
00000000: 7afa 03bf bfd4 95be 1529 b4bd 2c59 013c
00000010: 8df2 253f 58f5 e0bb 68b2 983e 3727 d93c
00000020: 7ddc c6bd 7434 233e
